…
    <span class="n">metrics</span> <span class="o">=</span> <span class="p">[</span><span class="s">"accuracy"</span><span class="p">]</span>
<span class="p">)</span>
<span class="n">leNet5</span><span class="p">.</span><span class="n">summary</span><span class="p">()</span>
</code></pre></div></div>

<pre><code class="language-output">Model: "model"
_________________________________________________________________
Layer (type)                 Output Shape              Param #   
=================================================================
input_1 (InputLayer)         [(None, 28, 28, 1)]       0         
_________________________________________________________________
conv2d (Conv2D)              (None, 24, 24, 6)         156       
_________________________________________________________________
max_pooling2d (MaxPooling2D) (None, 12, 12, 6)         0         
_________________________________________________________________
conv2d_1 (Conv2D)            (None, 8, 8, 16)          2416      
_________________________________________________________________
max_pooling2d_1 (MaxPooling2 (None, 4, 4, 16)          0         
_________________________________________________________________
flatten (Flatten)            (None, 256)               0         
_________________________________________________________________
dense (Dense)                (None, 120)               30840     
_________________________________________________________________
dense_1 (Dense)              (None, 84)                10164     
_________________________________________________________________
dense_2 (Dense)              (None, 10)                850       
=================================================================
Total params: 44,426
Trainable params: 44,426
Non-trainable params: 0
</code></pre>

<p>We first assign the variable <code class="language-plaintext highlighter-rouge">lenet_5_model</code> to an instance of the tf.keras.Sequential class constructor. Within the class constructor, we then proceed to define the layers within our model.</p>
…
