…
pan class="s">'accuracy'</span><span class="p">])</span>
<span class="n">model</span><span class="p">.</span><span class="n">summary</span><span class="p">()</span>
</code></pre></div></div>
<pre><code class="language-output">Model: "model"
_________________________________________________________________
 Layer (type)                Output Shape              Param #   
=================================================================
 input_1 (InputLayer)        [(None, 256, 256, 3)]     0         
                                                                 
 conv2d_2 (Conv2D)           (None, 256, 256, 32)      896       
                                                                 
 max_pooling2d (MaxPooling2D  (None, 128, 128, 32)     0         
 )                                                               
                                                                 
 bottle-neck (Conv2D)        (None, 128, 128, 8)       2312      
                                                                 
 up_sampling2d (UpSampling2D  (None, 256, 256, 8)      0         
 )                                                               
                                                                 
 conv2d_3 (Conv2D)           (None, 256, 256, 32)      2336      
                                                                 
 conv2d_4 (Conv2D)           (None, 256, 256, 64)      18496     
                                                                 
 conv2d_5 (Conv2D)           (None, 256, 256, 128)     73856     
                                                                 
 conv2d_6 (Conv2D)           (None, 256, 256, 3)       387       
                                                                 
=================================================================
Total params: 98,283
Trainable params: 98,283
Non-trainable params: 0
_________________________________________________________________
</code></pre>

<p>I used mean squared error (MSE) loss to train my model. Because I wanted the model’s output to be the same as the original image. MSE should do the job for us perfectly but, we could use a different loss function that would compare the images from a regional point of view and would be better for high-resolution images and more general datasets. But, we are good with MSE on this task.</p>
…
    <span class="n">metrics</span> <span class="o">=</span> <span class="p">[</span><span class="s">"accuracy"</span><span class="p">]</span>
<span class="p">)</span>
<span class="n">leNet5</span><span class="p">.</span><span class="n">summary</span><span class="p">()</span>
</code></pre></div></div>

<pre><code class="language-output">Model: "model"
_________________________________________________________________
Layer (type)                 Output Shape              Param #   
=================================================================
input_1 (InputLayer)         [(None, 28, 28, 1)]       0         
_________________________________________________________________
conv2d (Conv2D)              (None, 24, 24, 6)         156       
_________________________________________________________________
max_pooling2d (MaxPooling2D) (None, 12, 12, 6)         0         
_________________________________________________________________
conv2d_1 (Conv2D)            (None, 8, 8, 16)          2416      
_________________________________________________________________
max_pooling2d_1 (MaxPooling2 (None, 4, 4, 16)          0         
_________________________________________________________________
flatten (Flatten)            (None, 256)               0         
_________________________________________________________________
dense (Dense)                (None, 120)               30840     
_________________________________________________________________
dense_1 (Dense)              (None, 84)                10164     
_________________________________________________________________
dense_2 (Dense)              (None, 10)                850       
=================================================================
Total params: 44,426
Trainable params: 44,426
Non-trainable params: 0
</code></pre>

<p>We first assign the variable <code class="language-plaintext highlighter-rouge">lenet_5_model</code> to an instance of the tf.keras.Sequential class constructor. Within the class constructor, we then proceed to define the layers within our model.</p>
…
